model/mnist_model.pth (torch, 903344 bytes, 8 tensors)

conv1.weight f4 [32, 1, 3, 3]
00000000: 17f5 f7be c38f 88be d271 163e 855e d03d
00000010: 2ada 7b3e 16f6 9a3e 624b 663e ffec 6a3e
00000020: 7bc9 dfbe cb0f c43e 5e12 17be 402a ab3e
00000030: fc0f 943e 607b 473e 30a0 a1bd 9b72 fbbe
00000040: c590 e3be 71a4 13be 5eab 823e b03b df3d
00000050: 7725 393e aff1 283e 0734 fa3d 5421 283d
00000060: 8947 07bf 1604 b0be af7c 88be 88fb c63c
00000070: 7ac1 1c3d 6c1e bbbb 0431 bcbd ed92 073e
00000080: 07ac 113d a215 f9ba 4fb6 8f3e a5f6 09be
00000090: 6502 9c3e 2686 533b 8762 32bc d553 903e
000000a0: aba0 1b3e da0b 0a3e 7814 393d ac08 8a3e
000000b0: f0dd 93be 759d bcbe b055 3ebe a5cb 023c
000000c0: fb93 2fbe 1b45 873e 0821 ae3e 7f50 83be
000000d0: 297f 3abe 1ef7 763e 8d47 073e 91ba 6b3e
000000e0: c03e 353e 0eba 31bc bbe6 3a3e 9a7c 543e
000000f0: 288d 0ebd 845b 033c cd8c 933d ee71 523e
00000100: 6ed8 5e3e 5dc0 d6be 4097 3fbe 58e8 b23e
00000110: b6bd 6c3d 51af 80be 5c08 40be 8146 a93e
00000120: bf09 873e 1fe3 aabe 49c2 dcbe 2dc1 823d
00000130: 7cf4 793e d04f a9bd fa8a cd3d 41c7 863d
00000140: 4405 4a3e 6bd4 743d 2aaa 8dbe 60ad 15bf
00000150: c041 42be b328 85be 130d ba3e 41ec 863e
00000160: 1973 963e 7cc9 963e 0f08 d93d cfda 3c3e
00000170: 36ec bb3d 72c2 223d 5bc3 36bd ffb1 413e
00000180: f793 973d 7ad4 0a3e abbf 96be 07a1 543e
00000190: dbce 0ebe f3d5 93be 5c59 40be c045 76be
000001a0: 3ecc aebd ca1a a2be cb87 363b 9861 f2bb
000001b0: 0410 703e a351 c1be efb7 3fbe b84f bb3d
000001c0: 75f6 ef3d ce16 f0be eb98 aa3e 6ffe 8f3e
000001d0: 2d62 8bbd bd69 a73e 2d2e 1e3e e7e7 bd3e
000001e0: d1da 82bc 841e 8b3e f24c 2bbd c71e 02bf
000001f0: c2ef dcbe e285 39be eb83 563e 3733 56bc
00000200: adb9 d4be 61c4 973d 04a9 983d dd21 8dbe
00000210: dcf2 8b3e 0691 a73d a58c c6bd e5da 9abd
00000220: 5513 a2be 61fd 11be ac0b 18be e5d5 74be
00000230: 4d4c 46bd 2003 1cbe 62eb 003b 5705 cabe
00000240: a6dc df3e 8c71 e8bd 006c a7be 3183 f6bd
00000250: 4f2e 01bf 1d07 943d 910c 66be 2c67 dabd
00000260: b40f 193e 00c0 063f 0034 393e 6e8b aabe
00000270: bd55 843e 8005 b7be a68b cbbe 997f e1be
00000280: 1c29 14be d8d5 71be e62a 903e 724f 57be
00000290: 778a 21bc 095b ad3e caf1 79be a4ee 87be
000002a0: 81b0 cc3e 51fa b5be 6289 d6bb 507d 3abc
000002b0: 40cc 283e 27a5 8f3e 1eec bf3d 374c 323e
000002c0: e7ab 213e ab1c 3ebe 19e8 d7be be35 f1be
000002d0: 6e2c cfbe 6615 b5be bcb1 06be 826c 883e
000002e0: 2804 86be acde c1be 36b5 a83e df76 873e
000002f0: 716e 9abe b42d ae3e 7bbf a63e 47ab 9b3d
00000300: adb5 adbe f325 4e3e a59b 25be f81c 08bf
00000310: f19e 9b3d 5caa 903e 365e 83be e43a e3bd
00000320: 53d4 90be b2f1 4a3c cd76 c6bd aac4 85bc
00000330: 12bc 8fbd 2df7 793d e27b 4a3e fb6a e1bd
00000340: 968b ef3e 6eed a93e a46b eebe 2bf3 15bf
00000350: 916d 6d3d f2ee 4abd 7366 86bd 434c 03bf
00000360: de15 3dbe 3021 4f3e 1902 6fbc 426c d0bd
00000370: 60f1 9a3c 8743 38be dd22 5cbe 1f7f 283e
00000380: 7e70 613e a3e5 e0bd 86c4 8b3e ef84 d1be
00000390: a7f0 fdbc 4ece 4c3e 6645 5d3e 6c8b b83c
000003a0: 2fea 1bbe f050 49bd a9db cc3d ecc8 07bf
000003b0: 04a3 1dbe b7e5 a7be c9d7 59be d89b ab3e
000003c0: 76b9 95be 1ede 0dbe 95e0 043f af89 f1bd
000003d0: af50 b8bd 885b a33d 463a 8bbe ae05 2a3e
000003e0: bda4 1d3d a34e 25be aa82 9e3e 05a8 c3bb
000003f0: 1299 b43c d7ce b2be f6c0 aabe f1cf d53e
-0.48429176 -0.2667218 0.14691857 0.10174278 0.24594942 0.30265874 0.22489694 0.2294197
-0.43708405 0.382933 -0.147531 0.33430672 0.28918445 0.19480658 -0.078918815 -0.49110875
-0.44446388 -0.14418198 0.25521368 0.10900056 0.18080698 0.16498445 0.12216955 0.04104741
-0.5284353 -0.34378117 -0.26657626 0.024289861 0.03827045 -0.0057104137 -0.091890365 0.13239641
0.03556445 -0.001900364 0.28068778 -0.13472994 0.30470577 0.0032276004 -0.010887749 0.2818896
0.15198009 0.13481084 0.045185536 0.2695974 -0.28880262 -0.3683888 -0.18587375 0.007983123
-0.17146294 0.2641991 0.34009576 -0.2564735 -0.1821257 0.24117705 0.13210888 0.23020388
0.17699718 -0.010847582 0.18252079 0.20750657 -0.034802586 0.0080174245 0.0720459 0.20551273
0.21762249 -0.41943637 -0.18710041 0.3494289 0.05779811 -0.25133756 -0.18753189 0.33061603
0.26374623 -0.33376405 -0.43116978 0.063845016 0.2440967 -0.08267176 0.10036273 0.065809734
0.19728571 0.05977289 -0.27668887 -0.58467674 -0.18970394 -0.26007614 0.363381 0.26352122
0.29384688 0.29450595 0.1059724 0.18442844 0.09175913 0.03973622 -0.0446199 0.18915556
0.07401269 0.13557616 -0.29443106 0.20764552 -0.13946097 -0.28874168 -0.18784088 -0.24050045
-0.0853505 -0.31661063 0.0027851935 -0.007396888 0.2344361 -0.37757596 -0.18722509 0.091460645
0.1171693 -0.468924 0.33319792 0.28123805 -0.06805835 0.3269786 0.15447302 0.3709099
-0.01597348 0.2717172 -0.041821428 -0.5082821 -0.4315167 -0.18117478 0.2094876 -0.013073734
-0.4154791 0.07410503 0.07454112 -0.27564898 0.27333724 0.08181958 -0.096947946 -0.07561282
-0.31655374 -0.14256813 -0.14848202 -0.2390972 -0.04841261 -0.15235567 0.001967155 -0.394572
0.4372303 -0.11349782 -0.32699585 -0.120367415 -0.50461286 0.07227919 -0.22465731 -0.1066421
0.14947397 0.5263672 0.18086243 -0.333095 0.25846663 -0.35746384 -0.3975498 -0.44042662
-0.14468807 -0.23616731 0.2815773 -0.210264 -0.009859673 0.33858517 -0.24408641 -0.26549256
0.39978412 -0.3554254 -0.006547139 -0.011382416 0.16484165 0.2805569 0.09371208 0.17411886
0.15788232 -0.18565623 -0.42169264 -0.47111315 -0.40463585 -0.35367888 -0.13153738 0.26645285
-0.26175046 -0.37865198 0.32950753 0.2645788 -0.30162385 0.34019244 0.32567963 0.07601028
-0.3392767 0.20131664 -0.16172655 -0.531692 0.07598675 0.28254974 -0.25657815 -0.11095217
-0.2828699 0.012386726 -0.09690628 -0.016329128 -0.070182934 0.06102674 0.1977382 -0.11006733
0.46786183 0.33188957 -0.46566498 -0.5857417 0.05796582 -0.049544282 -0.065625094 -0.5128824
-0.18465373 0.20227504 -0.014587902 -0.101768985 0.018913925 -0.1799451 -0.21497674 0.16454743
0.22015569 -0.109813 0.27298373 -0.40921733 -0.030998541 0.20000574 0.21608505 0.022527419
-0.15226053 -0.049149454 0.10002834 -0.5304096 -0.15394217 -0.32792446 -0.21273722 0.33517337
-0.29243058 -0.13854262 0.51905185 -0.11793839 -0.08999764 0.079764426 -0.27192897 0.16603729
0.038487185 -0.16143279 0.30959064 -0.005970957 0.022045646 -0.3492343 -0.33350343 0.4176021

conv1.bias f4 [32]
00000000: ab4d 9abe eb19 1e3c 20f3 92bd 4c64 61bc
00000010: 6c05 453c 852b 94bd 4631 7abb c402 603d
00000020: 102a 803d fc69 27bb 7277 a13d 86ac 943e
00000030: c6ad 673d 2568 cb3c 8531 843c 62be b83d
00000040: 7804 8ebd fff7 93be 218f 103c 29a7 b83c
00000050: 3090 1cbb 4e11 d0be fc9b fa3d 0ca3 853e
00000060: 8f4e dd3a 9a1f b73c 1fc5 8dbe 41c4 59bd
00000070: 5c21 42be 6b69 6a3d a93e 78be b5e2 dcbd
-0.3013738 0.009649734 -0.07175279 -0.013756823 0.012025218 -0.07234863 -0.0038176342 0.054690138
0.06258023 -0.002554535 0.078841105 0.29037875 0.056562208 0.024829933 0.016136894 0.09020688
-0.06934446 -0.28900144 0.008823187 0.022540646 -0.0023889653 -0.40638202 0.12236783 0.26100957
0.0016884374 0.022353936 -0.27689454 -0.053165678 -0.18958038 0.05722944 -0.24242653 -0.107854284

conv2.weight f4 [64, 32, 3, 3]
00000000: edf4 5bbd 6fce 88bd 926a d03d a5f3 f2bd
00000010: fc20 81bd 4218 023e e156 27bd 14e4 993d
00000020: 26f1 01bd c716 edbc fdaf f3bd 3b4e 92be
00000030: 54a9 3cbc 60e2 33be 9aeb 67be 5727 85bd
00000040: 0c6b 15be 0f36 96bd 0fc2 d5bb 81e6 1dbe
00000050: 6e2d 8ebe 4aed a2bd ce14 11be 7814 68be
00000060: 936e 35bc d28c 62be 4d5b 48be d756 82bc
00000070: 7c48 0fbd 2e58 a63d b4dc e8bd d6d2 893a
00000080: 3dec e23c 28ea 3abd 6eb9 943d 04b3 9c3d
00000090: 3953 fc3c a443 c2bc 2c6a 84bc 543d d2bd
000000a0: 6f54 2cbd 416b e53d 0385 b1bd e6ff ee3b
000000b0: 1814 62bb 0be1 87bd 0307 993d 9e01 ce3d
000000c0: ec1d 6cbd 8e0d 8b3d 4ae1 ae3d 5e21 bc3d
000000d0: f5de a63b 4edf 89bd cb11 61bd c495 52bd
000000e0: e3fa b93c 95be ddbc 5aeb 383d ced2 093d
000000f0: 70d0 babd d734 b63d 5f9a 09bc a806 4fbd
00000100: 4a76 11bd ed2d 53bd 9635 09bd 49c9 d6bc
00000110: 3c12 2fbd 0ce1 d0b9 52e1 1bbb c00a bebc
00000120: 1592 5abd 0c64 95bd 03f9 dfbb 84e8 98bd
00000130: 18c9 75bd cca0 2abc ff4a 04bd cc61 ffbc
00000140: ae65 83bc f125 a7bd ae04 aebc 5a66 903d
00000150: 6536 dbbd e811 f03c 5ff1 38bd 7e48 15bd
00000160: c6f8 063d 21d8 57be 29c4 453d 1360 80bd
00000170: 8b3c a03d 5fc4 f8bd b6f2 e43c b271 ad3d
00000180: 5aea acbd 93a0 293d 3fb6 6cbc 1bbe 1fbc
00000190: 3552 103d f892 703d b7d1 05bd d8a0 76bc
000001a0: 6a52 42bd c673 ef3c 95cb c9bd 8d2c dfbc
000001b0: 96b4 8c3d f12e 0ebe 11a7 d2bd 71a5 b1bd
000001c0: e534 d9bd c852 6e3d 28c1 cdbd a5f8 34bd
000001d0: 3d80 7e3d 5a9c abbd 52e5 1cbe 2fde 9abe
000001e0: 643a dcbc e372 dbbd 166a 5dbe 8ec1 41be
000001f0: 7b82 5dbe 93ed 54be ab2e e83c 0e5c 31bd
00000200: 24de 9dbd dca1 093d bdbe bbbd a018 66bc
00000210: 9734 30bd ef5c 19bd b3a6 133e 9545 13bd
00000220: fed8 983c 861d c1bd 9ac4 27bc ab36 08bc
00000230: d805 15be 8134 3a3d 270f 9ebd 7f86 75bd
00000240: 505d 873d 43cd b13d 2038 b33c 60e5 1c3c
00000250: 450a ae3d d331 cbbc 6e91 f83d c08a ebbb
00000260: e6a6 ad3c d76e 0e3d 1755 573d cef2 44ba
00000270: 134e 573d 7a9d fe3c 0b11 783c 4125 c73d
00000280: 6f9f 0abd 8084 9e3d 1bb2 d63d 89ec 343b
00000290: af86 673b 6422 44bd b05e dabd 6578 853d
000002a0: e632 333d 6705 22bc 122e 823d a191 32bd
000002b0: d6c7 39be 2f29 40be ab17 16bb dcb8 89be
000002c0: ed09 35be cb16 e1bd e25b 52be 7f08 d6bd
000002d0: bd28 08bd 755a 24bd a947 17be e0cb 503b
000002e0: 6003 0bbd d539 a2bd a8dc 553d 5c36 64bd
000002f0: 284d 03bc acd4 99bd e7ef 0dbd 66c0 4bbb
00000300: b13b 17be 19f6 6c3d 3b33 4dbd 0be7 29be
00000310: a37a e4bc 0328 c7bd 1171 903b 70e7 e33c
00000320: 7730 b83d 78a1 7fba 778f 3f3d 7778 66bd
00000330: d8b8 623d b8d2 bebd 6bf9 6abe 05ef 89bd
00000340: f89e efbd d169 35be f89a 05bd 7e83 a5bd
00000350: 79df 60be 1321 8fb9 80c3 8fbe d045 85be
00000360: 3fad 96bd 9025 9f3d 411f b73d 49be 77bd
00000370: e844 4bbb 8239 a33b 1be3 2cbd 06f8 153d
00000380: 6be3 a6ba e196 22bd 7fc2 9abd 2581 163c
00000390: fc4d 4cbd 9a44 d2bd e3ab 15bd 10dd 493b
000003a0: 54dc ca3c 8d31 803d 529c f43d d316 383d
000003b0: ab77 2c3e 9445 b43c 6c2f 153e 4324 e23d
000003c0: 1c92 fa3d 0793 493d 6b48 95bc 9a33 8ebc
000003d0: 612b 513d 06f0 ce3b de1f a7bd 85a0 6e3d
000003e0: 706d 223a 4699 cd3c e561 f83d a8ae 9bbd
000003f0: 1cd6 8bbd 53a2 aabe a835 58be d402 5fbe
-0.053700376 -0.06679999 0.10176577 -0.11862878 -0.063051194 0.12704566 -0.04085434 0.075142056
-0.031724118 -0.028941525 -0.118988015 -0.2857531 -0.01151498 -0.17566824 -0.22648469 -0.06501644
-0.14591616 -0.073345296 -0.0065233777 -0.15419962 -0.27769035 -0.079554155 -0.14168093 -0.22664058
-0.011073726 -0.22124031 -0.19566078 -0.01591055 -0.034981236 0.08122288 -0.11370221 0.0010515105
0.027700538 -0.045633465 0.072619304 0.07651332 0.030801402 -0.023713894 -0.016163908 -0.10265604
-0.04207271 0.11202098 -0.08667948 0.007293689 -0.003449684 -0.066347204 0.074720405 0.10058902
-0.057645723 0.06789695 0.08539064 0.09186052 0.0050924965 -0.06732045 -0.05494861 -0.05141236
0.02270264 -0.027068416 0.045146324 0.033648305 -0.091217875 0.08896797 -0.008398621 -0.050543457
-0.0355132 -0.05155747 -0.03349837 -0.026219027 -0.042742 -0.00039840525 -0.0023785424 -0.023198485
-0.05336197 -0.07294473 -0.0068351044 -0.07466224 -0.06000623 -0.0104143135 -0.032298084 -0.031174563
-0.016039696 -0.081615336 -0.021242466 0.07050772 -0.10703734 0.029305413 -0.045152064 -0.036446087
0.032952093 -0.2107854 0.048282776 -0.06268325 0.07824048 -0.1214683 0.027947765 0.08468951
-0.084431365 0.0414129 -0.014447748 -0.0097499145 0.03523465 0.05873391 -0.032670703 -0.015052997
-0.047441877 0.02923001 -0.09853283 -0.027242923 0.068703815 -0.13885094 -0.10285772 -0.086741336
-0.10605792 0.058184415 -0.10046607 -0.04418244 0.062134016 -0.08379431 -0.15321854 -0.30247638
-0.026883312 -0.10715272 -0.216225 -0.18921492 -0.21631806 -0.20793752 0.028342566 -0.04330068
-0.077083856 0.033601627 -0.0916724 -0.014043957 -0.043018904 -0.037442144 0.1441906 -0.03595503
0.018658157 -0.09429459 -0.010239745 -0.008313815 -0.1455301 0.045460228 -0.07717734 -0.05994272
0.06609595 0.08681729 0.021877348 0.009576172 0.084980525 -0.024804031 0.121371135 -0.007188171
0.021197747 0.034773674 0.052571382 -0.00075129874 0.05256469 0.03108095 0.015140782 0.097239025
-0.033843454 0.07740116 0.1048319 0.0027606806 0.003532808 -0.04788436 -0.106625915 0.06517104
0.043749712 -0.009888983 0.063564435 -0.043595914 -0.18142638 -0.1876571 -0.002290229 -0.2689885
-0.17679568 -0.109906755 -0.20542863 -0.10450839 -0.033241976 -0.04012533 -0.1477343 0.00318598
-0.033938766 -0.07921187 0.052212387 -0.055715904 -0.008014001 -0.07511267 -0.034652617 -0.003109002
-0.14768864 0.057851885 -0.050097685 -0.16592042 -0.027890509 -0.097244285 0.00440801 0.027820319
0.08993619 -0.0009751539 0.046767678 -0.056267228 0.055352062 -0.09317535 -0.22946708 -0.067350425
-0.11700243 -0.17716147 -0.032618493 -0.08081721 -0.21960248 -0.00027299728 -0.28078842 -0.26029825
-0.07357263 0.07770836 0.08941508 -0.060484204 -0.0031016413 0.0049812207 -0.042208772 0.036613487
-0.0012732571 -0.03969467 -0.075566284 0.009186064 -0.04987906 -0.10266991 -0.036540877 0.003080193
0.024763264 0.06259451 0.11943878 0.044943642 0.16842525 0.022005834 0.14568871 0.110420726
0.122348994 0.04921248 -0.018223008 -0.01735859 0.05106676 0.006315234 -0.08160375 0.058258552
0.0006196117 0.0250975 0.12128047 -0.076016724 -0.068279475 -0.3332697 -0.21114218 -0.21778423

conv2.bias f4 [64]
00000000: f65b 4abd 09c7 01bc 77ed cdbc 5e22 013d
00000010: eb26 95bc 70f0 86bb b3ca ecbc cf1d 273c
00000020: 26e6 2b3c ede5 553c 3ea7 a1bc dfd9 6abc
00000030: aee6 30bd cb6c ce3b 5620 9abd e36b 92bb
00000040: 1e65 013d 2aaf 0abd 36b1 a6bd f276 98bd
00000050: b24e 9abd 0f95 04bd 863f 503d 0536 9cbd
00000060: 2906 ecbc 59fb 943b ae92 4bbd 5019 0f3c
00000070: f5dd 9dbd d762 60bd 21cc 3bbb 446f 83bd
00000080: bbc9 043d a7e6 82bd 7cac 0bbd ab42 c6bd
00000090: 52b3 9dbd 980c c9bb 7ca6 353b 521f c9bb
000000a0: 3d45 5ebd c94d dabc 49ab 8dbd 3ef1 bebc
000000b0: 9311 8abd 9f2b cfbc 1bc9 ffbc 5d32 18bd
000000c0: f21c babd 378e 54bc 2bd4 f2bd d2ec e1bc
000000d0: dec9 83bd dfb5 a5bc 4e53 d5bc 6fdf 98bd
000000e0: e03e 8e3c b0aa cdbb d8a7 05bd 93c9 4a3d
000000f0: efc0 0abb 20d5 f2bc b9de 96bd d6cb 8abd
-0.049404107 -0.007920989 -0.025137646 0.031526916 -0.018207034 -0.004118018 -0.028905248 0.010199978
0.010491883 0.013055307 -0.019733068 -0.014334171 -0.043188743 0.00629959 -0.07525699 -0.0044684275
0.031590573 -0.033858456 -0.08139269 -0.07444562 -0.07534541 -0.032368716 0.05084183 -0.07627491
-0.028811531 0.0045465645 -0.04970043 0.008734062 -0.077083506 -0.05478176 -0.0028655606 -0.064177066
0.032418948 -0.0639165 -0.03410004 -0.09680685 -0.07700218 -0.0061355345 0.002771764 -0.006137767
-0.05426525 -0.026648419 -0.06917436 -0.023308393 -0.06741633 -0.025289355 -0.031223824 -0.037157405
-0.09087552 -0.01297336 -0.11856874 -0.027578745 -0.064349875 -0.020228324 -0.0260407 -0.074644916
0.017363966 -0.006276451 -0.03263077 0.049508642 -0.0021172126 -0.029642642 -0.073667 -0.0677716

fc1.weight f4 [128, 1600]
00000000: 4c7d 73bc 8082 36bc 519a 18bc e86a dbbc
00000010: 6620 bf3a 987f ad3b 16c3 7dbc a170 063c
00000020: cda6 d13b 86f2 273b a774 0ebc cbbc 193c
00000030: d1eb 55bc bbb6 bbbc ea7c 3fbc 73b2 04bc
00000040: 2a09 2cbc 0c73 c439 9500 96bc fd5e 7cbc
00000050: 3e15 b13b 5940 973b 22dc e03b 3f89 7e3b
00000060: a314 56bc e13e 353b 1fa5 87bc 25e2 71bc
00000070: 943a 98bc ab31 89bb 885a fabc a752 a8bc
00000080: 4f10 423b 65ff dc3c 3cae 893c 3a5f 79bc
00000090: 601d 003d 5a57 a33b 1d3f 4a3c 3e7d a5bc
000000a0: d760 603c edc8 05bc 5f8d 6bbc f2ae a3ba
000000b0: 639f 69bb 0c08 c43c e590 d7bc 4839 afb9
000000c0: 1499 02bd 5875 15bd 5526 efbc 6a22 d0bb
000000d0: 3f0d ddbc b6b8 e63b 1b0d bb3b 8edd 07bd
000000e0: 1d98 403b 23e5 c9bc dd6c c9bc e125 8e3c
000000f0: b0b6 5f3c facd 043c 353c 063c 91db 2abc
00000100: 03bd d2bb d548 d33b 832c 353c 62be edbc
00000110: 7f89 163c d746 a9bc ea08 8f3c 57b4 bbbc
00000120: b23d 07bc eca0 a4bc 7d30 163c fff6 ccbc
00000130: b1bb bdbc bfdd dabb ae24 2dbc 8937 02bd
00000140: 14b4 98bc 97d8 83bc 1142 cabc edb1 073c
00000150: e675 6ebc e623 893c acda 43bc 0ad6 f5bc
00000160: 2a81 e43b b434 093c 81f8 8ebc f5ae d63c
00000170: c6e9 153b eefb 10bc fe7d 3fbc 8d04 0d3c
00000180: 8275 3d3c d5c1 09bd 4979 43bc d539 afbc
00000190: 178e 51bc 6af9 4b3c 0df2 ee3a c27c e2bb
000001a0: 172d 103c 9523 f7bc 2811 8d3c db0d d53b
000001b0: e628 833c 5d36 1c3c 0fbd 0b3b c4a5 7f3c
000001c0: b90e b1bb 2104 513b 3444 05bd 3d0d 1b3b
000001d0: 8713 42bc 31fe d8bc 692e d8bb 9023 f33b
000001e0: b1b7 bebc 07a8 2cbc 757d d23b 020d 023c
000001f0: 4d6b 873c b281 603c 3dac 083b 8c01 9e3c
00000200: cbef b5bb a045 5fbc a6ca 8b3a a674 ef3b
00000210: 74ae 6e3b 8454 bd3c 59aa bd3c 8886 e93b
00000220: e0f2 123c e021 3bbb 22e4 f0bc 2a71 8abc
00000230: 0c67 0bbc b337 9d3b 917a 92bc 6dff 2e3b
00000240: a1b0 983c 4b99 ca3a 9fd5 1a3c 557a c4bc
00000250: 2d6c 023c 2438 fbbb 8042 283a 6ed7 893c
00000260: 6f18 b4bc 8481 c4bc 0dc9 d8bc da7d c53b
00000270: 2d58 daba a544 a7bc 76ce 0abc 9eb5 493c
00000280: 3e7b 1ebd ff95 c73c ac90 e63b b90e 09bd
00000290: 123d 10bd 29bc 6abc 963f 3a3b aade 76bc
000002a0: 1828 6bbc 3a1c bd3b d8cf a03c 5203 933c
000002b0: a9c3 06bd 13e0 ecbc cc45 b33c 42b8 57bc
000002c0: 2ffe d8bc 317a 283c 06a4 cabc 25df 01bc
000002d0: df1c c5bb 2b88 b0bc 5a05 0dbd 4c56 7fbc
000002e0: ab97 643c 5d57 5d3b fc74 debc d93f 19bd
000002f0: bfd8 18bc 0317 86ba 7bd4 fbbc 4fd9 15bc
00000300: 4cd9 1b3b bcf7 c73c a4bb d1bc b76f b83b
00000310: eee5 cfbc 6f83 7fbc cfe8 11bd d509 78bc
00000320: 00f2 e639 8111 b23c 20bc 3c3c 9af4 473b
00000330: 0b6e b4bc 410e d23c a7b5 71bb e745 3e3c
00000340: 2d68 d7bb f543 c13c b53a 983c dd19 e8bb
00000350: 1b9d 953a 1ec3 5d3c 93d7 5c3c baa3 c93c
00000360: 2a28 56bc 662a 43bc 167b 8dbc d4a4 9a3b
00000370: 4d1c b7ba 5093 5fbc 6a61 c1bc e106 1f3c
00000380: 4e0e 89bc ecc6 b4bc 2455 d6bc 5e48 5b3c
00000390: 8fd3 74bb d784 af3c ac05 06bc 9adf a5ba
000003a0: e81c e3bb 1440 aebc 01b3 0dbd aeea b73b
000003b0: 2c63 24ba 9dbb 443c 19d2 d7bb 184e 4a3c
000003c0: 9442 82bc 0614 48bc 0469 a5bc a818 5abc
000003d0: c3d0 39bb 1a0c 3fbc e233 8e3c e7b6 873c
000003e0: 126e ff3b cd9e 7abc effb 2dbb b5a5 2bbc
000003f0: f69e 05bd bb8f 90bc 2c57 9f3b a7dc 52bc
-0.014861416 -0.011139512 -0.009314136 -0.026784375 0.0014581799 0.0052947514 -0.015488407 0.008205564
0.006398058 0.0025626733 -0.008694804 0.009383391 -0.013056711 -0.022914281 -0.011687497 -0.008099186
-0.010500232 0.0003746975 -0.018310824 -0.015403506 0.0054041436 0.004615825 0.0068621794 0.003883913
-0.013066444 0.0027655887 -0.016558228 -0.01476339 -0.01858262 -0.004186829 -0.030560747 -0.020547224
0.0029611771 0.02697725 0.016806714 -0.015220458 0.031278014 0.0049847784 0.012344149 -0.020201322
0.013694963 -0.00816558 -0.014376967 -0.0012488051 -0.003564798 0.023929618 -0.026314208 -0.0003342128
-0.031884268 -0.03648886 -0.029193083 -0.0063517587 -0.026983855 0.007041062 0.0057083494 -0.033170275
0.0029387542 -0.024645394 -0.024588043 0.017352046 0.013654396 0.008105749 0.008193065 -0.010428325
-0.0064312234 0.0064478912 0.011057976 -0.029021446 0.009188055 -0.020663662 0.017460305 -0.022913141
-0.008254455 -0.020096265 0.009166834 -0.02502012 -0.023160787 -0.006679266 -0.010567827 -0.031791244
-0.018640555 -0.016094489 -0.024689706 0.008282167 -0.014554476 0.01674075 -0.011953991 -0.030009288
0.0069734054 0.008374382 -0.01745248 0.026206473 0.0022874936 -0.008849127 -0.011687754 0.008607042
0.011563661 -0.03363212 -0.011930772 -0.021389881 -0.0127902245 0.012449602 0.0018230096 -0.006911845
0.008799813 -0.030168334 0.017220095 0.006501896 0.016010713 0.009534446 0.0021322405 0.015603486
-0.0054033664 0.003189333 -0.032535747 0.0023659014 -0.011845476 -0.026488395 -0.0065973294 0.007420011
-0.02328095 -0.010538108 0.006423647 0.007937672 0.016530657 0.013702797 0.0020854615 0.019287847
-0.005552267 -0.01362744 0.0010665252 0.0073076067 0.00364199 0.02311159 0.023152517 0.007126633
0.008969039 -0.0028554127 -0.029405657 -0.016899664 -0.008508455 0.0047978996 -0.01788071 0.0026702539
0.01863891 0.0015457062 0.009450345 -0.023984114 0.007960361 -0.0076666046 0.00064186007 0.016826358
-0.021984307 -0.02398754 -0.026463056 0.0060269656 -0.0016658359 -0.020418474 -0.008472076 0.012311367
-0.03869175 0.024363516 0.007036289 -0.033461306 -0.03521449 -0.014327087 0.0028419248 -0.015067736
-0.014352821 0.005771187 0.019630358 0.01794592 -0.03290144 -0.02891544 0.021883868 -0.013166489
-0.026488392 0.010283039 -0.024736416 -0.007926737 -0.0060154046 -0.021549305 -0.03442893 -0.01558454
0.013952176 0.0033773996 -0.027155392 -0.037414405 -0.00932902 -0.0010230247 -0.030740967 -0.009146049
0.0023780642 0.024410121 -0.02560217 0.005628552 -0.025378194 -0.015595301 -0.035622414 -0.015139063
0.00044049323 0.021736862 0.011519462 0.0030510784 -0.022025129 0.025641562 -0.0036881955 0.011613346
-0.006573698 0.023591975 0.018582681 -0.0070831613 0.0011414619 0.013535289 0.013479131 0.024614204
-0.013071099 -0.011911964 -0.017270606 0.004719356 -0.0013970226 -0.013645962 -0.023606021 0.00970623
-0.016730454 -0.02206751 -0.026163645 0.013383953 -0.0037357544 0.021425648 -0.008180063 -0.001265514
-0.006930936 -0.02127079 -0.03459454 0.005612693 -0.0006270881 0.012007621 -0.006586325 0.012347721
-0.015900888 -0.012211805 -0.020191677 -0.013311543 -0.0028353191 -0.0116606 0.017358724 0.016566707
0.007795104 -0.01529665 -0.002654787 -0.010476519 -0.0326223 -0.017646661 0.0048626866 -0.01286999

fc1.bias f4 [128]
00000000: 810c a6bb 0c98 a5bc afb6 b5bc dad9 3bbd
00000010: d323 cfbc f758 aabc aa04 83b8 a1c2 0e3c
00000020: c313 73bb c3ce c9bc 5915 773c 980c 0c3c
00000030: baed d1bc fcfd 43bc ca4e c7bb 109f 003c
00000040: 2b0b 72bc c7cb 983b 65d5 0bbc 0da8 253c
00000050: b387 e23b 4f7d 3fbc 4e21 44bd 53b9 983a
00000060: b3f5 b1ba cfb7 fb3c 801f 193c 967f 373c
00000070: 121b 843c 4156 0ebc c7eb dfbb 9f8b 3b3d
00000080: 24e2 eebb dce6 b2bb 3095 593c 7fc2 193b
00000090: 6117 b93c 5f19 81bd 309c c53a 8fe8 12bd
000000a0: 9411 b23c a146 46bd 7a2d b3bb 5fac 233b
000000b0: 3e84 d53c 26a8 6dbc 64c3 0cbc d4ff 8abc
000000c0: 3aea edbc 14a6 dcbb 19d8 813c 9616 5dbd
000000d0: 1809 013c c6f4 1c3c 0e83 a8bb 12f9 e5bc
000000e0: c5e6 2dbd 4c55 563c 0901 1f3c 2eaf b7bc
000000f0: bf0d b73c 2113 d6bc 7f37 debb 374c f9bc
00000100: 6204 7739 4da9 923b 190e 9ebc 37b1 4ebc
00000110: ed24 ea3b 3e23 a13b 3d1a 5a3d e7d8 143d
00000120: 3f34 51bd 2686 15bd af45 52bc 6241 0dbd
00000130: 3916 8e3c 793e 31bd 6607 0dbb 60bc 21bb
00000140: 7764 733c 7e32 cabc d3e5 d3bd 953c 433b
00000150: 13f6 3a3c 0352 aabc 0338 50bd bee6 e6bc
00000160: 817e 0f3c e3e8 97bc eaf3 4f3b fe0d 153c
00000170: 3608 afbc ef1a dfbc 8356 dabc aaae 313c
00000180: 0564 95bc 8f29 6fbc a519 263b e56c 983c
00000190: 807f 8cbc bdc3 803b df75 40bb 863c b3bc
000001a0: 97ac 7ebb 45b0 e3bc 637f c8bc 2f31 d1bc
000001b0: 2567 923b ffde 43bc 0303 ba3b cc24 42bc
000001c0: 254b e3bc 1875 42bb 3e01 df3c 944e 8b3b
000001d0: 3c0a 793c 355a 4fbc e7ba 17bc 892d b73b
000001e0: 21fd d8b7 2592 d0bc f67b 7c3c 2bf2 46bc
000001f0: 9794 05bd 9385 853c 99f5 f5bc 8903 4e3d
-0.0050674086 -0.020214103 -0.022181837 -0.045862056 -0.025285637 -0.020794375 -6.2474355e-05 0.008713395
-0.0037090636 -0.024634724 0.015080773 0.008547924 -0.025626052 -0.01196241 -0.0060823904 0.007850423
-0.01477317 0.004662964 -0.008534764 0.010110867 0.0069131493 -0.011687591 -0.047883324 0.0011651911
-0.0013577252 0.030727295 0.009345889 0.011199852 0.01612619 -0.008687557 -0.006833527 0.04578745
-0.0072901417 -0.0054596495 0.013280198 0.0023461876 0.022594156 -0.06303667 0.0015076455 -0.035866316
0.021736898 -0.0484072 -0.0054680677 0.0024974567 0.026064035 -0.014505422 -0.008591507 -0.016967691
-0.029042352 -0.0067336652 0.015850114 -0.053976618 0.007875703 0.009579843 -0.005142576 -0.028072868
-0.042456407 0.01308186 0.009704837 -0.0224224 0.022345422 -0.026132168 -0.006781518 -0.03043185
0.00023557388 0.0044757486 -0.019293832 -0.0126154935 0.007145515 0.0049175313 0.05324768 0.036339667
-0.051075216 -0.036504887 -0.012833997 -0.034486182 0.017344581 -0.04327247 -0.0021519302 -0.002467893
0.014855496 -0.02468228 -0.1034657 0.0029790748 0.011411208 -0.02079106 -0.050834667 -0.028186198
0.008758188 -0.018543666 0.0031731077 0.009097574 -0.02136622 -0.027234523 -0.02665258 0.010844866
-0.01823617 -0.014597311 0.0025344875 0.018606612 -0.01715064 0.003929584 -0.0029367132 -0.021879446
-0.0038860196 -0.027794013 -0.024474805 -0.025536148 0.004467862 -0.011955022 0.0056766286 -0.011849593
-0.027745793 -0.0029671844 0.027222272 0.0042513106 0.015200194 -0.012655784 -0.00926087 0.005590145
-2.5867079e-05 -0.025460312 0.015410414 -0.012142698 -0.03261241 0.016299045 -0.030024337 0.05029634

fc2.weight f4 [10, 128]
00000000: 5728 2a3c 7333 bfbc 9deb 38be 6074 203d
00000010: 48d1 5f39 d61f 31bb 7f12 acbd 1acf 85bd
00000020: 1c35 9cbd 865e 883d 6c7f d53d 0501 353d
00000030: be1f 773d 147e 9e3d 333f 213d 903a f73d
00000040: 69de 9a3c 4715 6e3d 4274 653d c896 503d
00000050: cf05 5bbd da44 03bb c2be 5dbe b926 7f3d
00000060: edcc f3bc a7cf 23be 5b68 10be d70f 44be
00000070: e1f7 db3d 97eb 36be 5d98 43bd e2ba c43d
00000080: d17c 6ebd 039d 34be 5276 99bd e0a8 1ebd
00000090: d2d8 b03d 7de3 df3c bb85 4abd 286f b23c
000000a0: bac9 bd3d f6eb db3d 7895 a9bc b0c5 bebd
000000b0: 1713 e0bd a547 96bd 2760 29bd 1ffb de3d
000000c0: 81d2 8e3d ac3f 43bc 32e9 59bd ebd4 2f3d
000000d0: fbf6 cebc 31d0 213d f7ba dcbd fb67 123d
000000e0: b781 943d e739 22be a831 7ebb 0e9b 993d
000000f0: 2416 26bd 1c78 e2bc fa82 3cbd 0c44 db3c
00000100: ccc0 1cbe 76a1 98bc d4ca 0abd 042a afbd
00000110: 4191 b93d 90e0 ac3d adb0 7c3d ace1 5b3d
00000120: 6269 c2b8 68a8 2bba eb83 83bd 8338 793d
00000130: 4354 b53c ea28 82bd ad47 dcb7 89ff d63d
00000140: 3657 7ebd 7f16 a3bd 241f 93bc ac09 95bd
00000150: 1d44 c33d 3a5a dabd 26ec d23d fca6 973c
00000160: c0c7 99bd 2ef2 cf3d f1d6 993d b38a 89bd
00000170: 597e c9bc ce8e c13d 671f 033d 7b09 45bd
00000180: b6ae 1abd 6483 133c de7b 743d 3ec6 97bd
00000190: 35c3 21bc d5a6 a7ba 2d93 9dbd 9b48 4cbe
000001a0: 1081 f6bd d757 fbbb 83c9 833d 6bbf f5bd
000001b0: 13d8 d83d 18bf 5fbd dcdf 643c 26ae 503d
000001c0: d6d0 04bd 824f 23be 1193 dc3d 01c5 063d
000001d0: 4e75 d8bc 75bf 0cbe 0509 81bd 1235 b1bd
000001e0: b442 8d3d 8d46 26bd faf5 7b3d 7a84 55be
000001f0: 798f ec3b a5dd 96bd e547 23be c8c8 17be
00000200: 0509 51bd 1d43 08bc 4b94 d6bc 1bc1 03be
00000210: 029e 0d3c ce7b 5cbb 9a7c ca3b 79b2 32bc
00000220: 205d 993d 13d9 19bd 9ca7 b0bd 8479 cd3b
00000230: 4f17 443d fe25 01be 568d 9c3d 212f 1d3e
00000240: 143d 95bd e226 29be 2caf 24be 1df8 0cbd
00000250: 6c31 173d 22de db3c d561 203c 9cbc 4bbd
00000260: fca9 213d 3e60 ed3d 4547 b63d 0895 ad3d
00000270: f923 32bd 6963 0ebe 10dd a73d f1da c53d
00000280: 6434 5c3d 3bbf ac3d 1fa4 abbd 5be5 c0bd
00000290: 9547 2fbd d8f4 ac3d 4706 69bc aa57 a5bd
000002a0: 7b86 ec3c 7fa2 a7bd b270 b13d 3072 b1bd
000002b0: 7229 cc3b 8bcf ec3c d593 95bd d87c 453d
000002c0: d4a5 9e3d 7e13 463d 06c0 e93d 5ef7 3cbe
000002d0: 8588 a83d f8ae 6f3d 7a05 0e3d cca0 353b
000002e0: 7138 d1bd 7acb e63c b257 a33c 815b 8abd
000002f0: 369b 873d 6ba6 673d 5715 6f3c e1a5 5dbd
00000300: 7648 06bd 7263 04bd 710b ea3d 8884 5abd
00000310: df5b 16be b0c4 f33d 7496 b23d 9e24 373d
00000320: 21f3 5dbe 03e6 41be 66e3 8e3d 7e23 31bd
00000330: e6fe 6a3d 0d35 11bc 39db 75bd b43b 1ebe
00000340: 3934 b63d 4050 92bd 9f2a 833b 2928 d6bc
00000350: 171e 23be 73a4 d53d feb1 81bc fe2e c5bb
00000360: 9918 30bd f5ae e6bd 9d09 783d 8182 0f3c
00000370: 2703 d93c 0561 16be c819 8a3d 53b6 733d
00000380: b01c 053e 20d8 ca3d 789c df3d 1790 d23d
00000390: 3d17 303c 818d 2dbd 1d47 96bd 01cb c2bd
000003a0: 1ece c93d 0979 43bd f973 8bbb df98 1c3b
000003b0: fe4d adbd 1f6b 853d 7c3f a0bd 2ef6 a83d
000003c0: 8122 a6bd 8dd5 fe3d bec5 28be 8c34 a9bd
000003d0: ed74 36bb 9d54 91bd 75ce 833d 0566 adbd
000003e0: 7099 693d b660 ccba e130 063e e272 2cbe
000003f0: fe22 29be ae7d de3c 643c 43bd 7415 ff3d
0.010385594 -0.023339963 -0.1805863 0.039173484 0.000213449 -0.0027027032 -0.08401965 -0.06533642
-0.07627317 0.06658654 0.104246944 0.044190425 0.060333006 0.07738891 0.039366912 0.12071717
0.018904882 0.05812576 0.056019075 0.050925046 -0.053472336 -0.0020030052 -0.216548 0.06229279
-0.029760802 -0.15997182 -0.14102308 -0.19146667 0.107406385 -0.17863308 -0.047752727 0.096059576
-0.058224503 -0.1763802 -0.07493271 -0.03873527 0.08635105 0.027330155 -0.04944394 0.021781519
0.09266992 0.10738365 -0.020701155 -0.0931505 -0.10941141 -0.07337884 -0.041351464 0.10887741
0.06973744 -0.011917036 -0.053200908 0.042927664 -0.025264254 0.039505187 -0.10777848 0.035743695
0.07251304 -0.158424 -0.0038786922 0.075002775 -0.04054846 -0.027645163 -0.046023346 0.026765846
-0.15307921 -0.018631678 -0.03388484 -0.08552936 0.09060908 0.084412694 0.06169193 0.053682014
-9.27027e-05 -0.0006548227 -0.06421646 0.06084491 0.022134906 -0.0635546 -2.625942e-05 0.10497958
-0.06209489 -0.07963275 -0.017959185 -0.072772354 0.09534476 -0.106617406 0.10298948 0.018512242
-0.075088024 0.10153614 0.075117 -0.06715908 -0.02459638 0.09451066 0.03201237 -0.048104744
-0.037764274 0.009003494 0.05968844 -0.074108586 -0.009873201 -0.0012790809 -0.07694087 -0.19949572
-0.120363355 -0.0076703834 0.0643492 -0.11999401 0.10588088 -0.0546256 0.013969388 0.05094733
-0.032425724 -0.15948299 0.10770238 0.03290272 -0.026423123 -0.1374491 -0.063005485 -0.086527005
0.06897488 -0.040594626 0.06151388 -0.20851317 0.0072192517 -0.07366494 -0.15945394 -0.14822686
-0.051033992 -0.008316782 -0.026193758 -0.12866633 0.008643629 -0.003364313 0.0061794044 -0.010906809
0.07488465 -0.037560534 -0.08625719 0.0062705893 0.04787379 -0.12612149 0.07644145 0.1535001
-0.0728704 -0.16518739 -0.16082448 -0.034416307 0.036912367 0.02683932 0.00978895 -0.04974042
0.03946875 0.11590622 0.08900312 0.08475691 -0.043491337 -0.1390511 0.08196461 0.096609004
0.0537609 0.08434912 -0.08380913 -0.09418746 -0.042792875 0.08445138 -0.014222688 -0.08073361
0.028872719 -0.081852905 0.08664073 -0.08664358 0.0062305266 0.028907558 -0.07303587 0.048214763
0.07746473 0.048358433 0.11413579 -0.18453738 0.08229164 0.058516473 0.03467319 0.002771425
-0.102158435 0.028173197 0.019939277 -0.06755734 0.06621401 0.056555193 0.01459249 -0.054113273
-0.032783948 -0.0323214 0.114279635 -0.053349048 -0.14683484 0.119027495 0.08720103 0.044712655
-0.21674778 -0.18935399 0.069769666 -0.04324674 0.057371996 -0.008862746 -0.06002352 -0.15452462
0.088966794 -0.07144213 0.0040028836 -0.026142197 -0.15929447 0.10431757 -0.015831944 -0.006017565
-0.04299221 -0.11263839 0.060556043 0.008759142 0.026490761 -0.14685448 0.06743199 0.05950005
0.12999225 0.09904504 0.10918516 0.10281389 0.010747728 -0.042371277 -0.073377825 -0.09511376
0.09853767 -0.04772285 -0.0042557684 0.002389483 -0.084621415 0.06514572 -0.07824609 0.0825008
-0.0811205 0.12443075 -0.16481683 -0.08261976 -0.002784069 -0.07096217 0.06435863 -0.08466724
0.057031095 -0.0015592787 0.13104583 -0.168407 -0.16517255 0.027159538 -0.047665015 0.12455264

fc2.bias f4 [10]
00000000: 2e9f 2d3d 9a87 a13b 5769 213d 0d1d df3b
00000010: c82e 55bc 09f8 81bd ce55 583d 30f3 ac3d
00000020: 8301 363d ef74 9cba
0.042388134 0.004929495 0.0394071 0.006808883 -0.013011642 -0.06346137 0.052816205 0.08444822
0.044435035 -0.0011936704
